Deploying_With_ONNX/tabnet.onnx (onnx, 954420 bytes, 94 tensors)

tabnet.encoder.initial_bn.weight f4 [20]
0	0x3f7ff36e	0.9998082
1	0x3f80824a	1.0039761
2	0x3f80d1f4	1.0064073
3	0x3f7fb866	0.99890745
4	0x3f7ff0b6	0.9997667
5	0x3f7f0acf	0.9962587
6	0x3f800389	1.0001079
7	0x3f808492	1.0040457
8	0x3f805f05	1.0028998
9	0x3f7f986c	0.9984195
10	0x3f7f59d9	0.9974647
11	0x3f801fc1	1.000969
12	0x3f806d97	1.0033444
13	0x3f7e9730	0.99449444
14	0x3f806f39	1.0033942
15	0x3f800000	1.0
16	0x3f80b428	1.0054979
17	0x3f7f98e8	0.9984269
18	0x3f7fccb9	0.99921757
19	0x3f801056	1.0004985

tabnet.encoder.initial_bn.bias f4 [20]
0	0xbbf8c248	-0.0075915195
1	0xbc2c12fa	-0.010502571
2	0xbb5748dc	-0.0032849824
3	0xbb52ec5f	-0.0032184345
4	0x3c05ca56	0.008165916
5	0xbc4d7aca	-0.012541482
6	0x3b8c4a85	0.0042813444
7	0xbbce8521	-0.0063024913
8	0xbbb0ebef	-0.005399219
9	0x3aec60a9	0.0018034178
10	0x3ae04063	0.0017109032
11	0x37d3aa88	2.523257e-05
12	0x3c0f8d35	0.008761694
13	0xbb78c102	-0.0037956838
14	0x3a7cfa82	0.00096503657
15	0xbb9ecc04	-0.004846098
16	0x3c157233	0.0091214655
17	0xbbad6909	-0.005292062
18	0x3a59d885	0.0008310157
19	0x3b3bd4ec	0.0028660847

tabnet.encoder.initial_bn.running_mean f4 [20]
0	0x45e3218c	7268.1934
1	0x412db856	10.857504
2	0x3d33d3d8	0.0439032
3	0x3ca944cf	0.020662693
4	0x3e1a955c	0.15096039
5	0x3dd48f93	0.10378947
6	0x41bd26d5	23.64396
7	0x40bd104d	5.90824
8	0x3caee234	0.021348096
9	0x3a18af95	0.00058245036
10	0x3df0e825	0.11763028
11	0x3d354695	0.044256765
12	0x3c6e6ae5	0.014551853
13	0x3defe28f	0.117131345
14	0x3da6602a	0.081238106
15	0x00000000	0.0
16	0x3d2a3f34	0.04156418
17	0x3d388e7c	0.04505776
18	0x3d9e10a4	0.07718018
19	0x3d0d967a	0.034567334

tabnet.encoder.initial_bn.running_var f4 [20]
0	0x4cb4943e	9.467544e+07
1	0x42c5ecfe	98.962875
2	0x3f55f8b0	0.8358259
3	0x3f51f48d	0.8201378
4	0x3f56748e	0.837716
5	0x3f59e2ba	0.8511158
6	0x4418ed78	611.71045
7	0x4138112b	11.504191
8	0x3f521861	0.8206845
9	0x3f4d5db9	0.80221134
10	0x3f597aeb	0.8495318
11	0x3f56050d	0.83601457
12	0x3f50ab6b	0.81511563
13	0x3f597f7f	0.8496017
14	0x3f597f7f	0.8496017
15	0x3f4d37ac	0.80163074
16	0x3f55a190	0.8344965
17	0x3f56217a	0.8364483
18	0x3f594a2e	0.84878814
19	0x3f548661	0.83017546

tabnet.encoder.initial_splitter.shared.glu_layers.0.bn.bn.weight f4 [64]
0	0x3f7eaa9e	0.9947909
1	0x3f7e948e	0.99445426
2	0x3f7e9c68	0.99457407
3	0x3f80166d	1.0006844
4	0x3f8082b9	1.0039893
5	0x3f809870	1.004652
6	0x3f806f0f	1.0033892
7	0x3f80f242	1.0073931
8	0x3f7f9c5e	0.9984797
9	0x3f803d44	1.0018697
10	0x3f8098ae	1.0046594
11	0x3f7ee1bb	0.9956319
12	0x3f7fee67	0.9997315
13	0x3f80647b	1.0030664
14	0x3f8083fa	1.0040276
15	0x3f806f6b	1.0034002
16	0x3f7e2961	0.9928189
17	0x3f807950	1.0037022
18	0x3f80386c	1.0017219
19	0x3f7e4a40	0.99332047
20	0x3f7fb198	0.9988036
21	0x3f7fa4e4	0.9986098
22	0x3f7fd864	0.9993956
23	0x3f808438	1.004035
24	0x3f803436	1.0015934
25	0x3f80a39c	1.004993
26	0x3f7eaf95	0.99486667
27	0x3f7f8628	0.9981408
28	0x3f80d2ed	1.006437
29	0x3f7f55e4	0.99740434
30	0x3f80240a	1.0010998
31	0x3f80417d	1.0019985
32	0x3f7fc11e	0.9990405
33	0x3f7e445c	0.9932306
34	0x3f8086bc	1.0041118
35	0x3f802c82	1.0013583
36	0x3f808eff	1.0043639
37	0x3f8096a8	1.0045977
38	0x3f80b0e7	1.0053986
39	0x3f7f48fa	0.9972073
40	0x3f7e8fad	0.9943798
41	0x3f80d8ee	1.0066202
42	0x3f809db4	1.0048127
43	0x3f7f3017	0.99682754
44	0x3f7f5801	0.9974366
45	0x3f7f4eca	0.997296
46	0x3f80e9c6	1.0071342
47	0x3f7ef8ec	0.99598575
48	0x3f7dd1cb	0.99148244
49	0x3f7f4c43	0.9972574
50	0x3f805960	1.0027275
51	0x3f7febf6	0.9996942
52	0x3f806e74	1.0033708
53	0x3f7f88d4	0.9981816
54	0x3f800c31	1.000372
55	0x3f7ed8fd	0.9954985
56	0x3f7f15f0	0.9964285
57	0x3f805343	1.002541
58	0x3f7ea312	0.99467576
59	0x3f808d90	1.0043201
60	0x3f80e865	1.0070921
61	0x3f7ff637	0.9998507
62	0x3f811ce3	1.008694
63	0x3f808d7a	1.0043175

tabnet.encoder.initial_splitter.shared.glu_layers.0.bn.bn.bias f4 [64]
0	0x3ba81373	0.0051292717
1	0x3bb61078	0.0055561624
2	0xbb9543ac	-0.0045551863
3	0xbb7fb92e	-0.0039020288
4	0x3b521caa	0.0032060542
5	0xbad91b22	-0.0016563872
6	0x3b81ab90	0.0039572194
7	0x3b9f814d	0.004867709
8	0x3af579ca	0.0018728313
9	0xbb08578e	-0.002080414
10	0xbb9d2ddc	-0.0047967266
11	0xba9f9ade	-0.0012176891
12	0xb7f2c448	-2.8940049e-05
13	0x3bcaecd7	0.0061927843
14	0x3c08561a	0.008321309
15	0x3b2d4abd	0.0026442253
16	0xbb88ff9a	-0.0041808607
17	0xb88e5968	-6.787741e-05
18	0xb90039a0	-0.00012228498
19	0xb8ba1c6a	-8.874464e-05
20	0x3bb83eda	0.005622727
21	0x3bbb973f	0.005724817
22	0x3aa11f01	0.0012292565
23	0xbb511a52	-0.0031906557
24	0x3ac972a2	0.0015369246
25	0xbb6359da	-0.0034691007
26	0x3870dc8c	5.742586e-05
27	0x3b36045c	0.0027773594
28	0x3b827f46	0.0039824573
29	0xbb27773e	-0.0025553252
30	0x3b569a12	0.0032745642
31	0xbb4203e4	-0.002960437
32	0xbb8eef20	-0.004362002
33	0xb9bfa03c	-0.00036549743
34	0xbc211bf4	-0.009833325
35	0xb9a70912	-0.0003185948
36	0x3b3e1675	0.0029005085
37	0x3b871212	0.004122027
38	0x3abfab8d	0.001462327
39	0x3bf2f7e6	0.0074148057
40	0x3a06da09	0.0005144184
41	0xba8a4fd0	-0.001055235
42	0x3b6c596f	0.0036064049
43	0xbb90aa66	-0.0044148443
44	0x399d80ac	0.00030041242
45	0x3b129475	0.002236632
46	0xba845c4d	-0.0010098309
47	0x3bbf2cf3	0.005834216
48	0xbbce947c	-0.006304322
49	0x3bed8089	0.0072479886
50	0xba8d47be	-0.0010778827
51	0xbbf403cb	-0.007446741
52	0xbaf5033a	-0.0018692978
53	0x3a535efd	0.00080631656
54	0xba6663c6	-0.0008788671
55	0x3b67952a	0.0035336711
56	0x3abdf6a2	0.0014493058
57	0x3b68d43a	0.0035526888
58	0xbb74da95	-0.003736173
59	0xbb2750e4	-0.0025530392
60	0x3b9534ce	0.004553414
61	0xbade93ae	-0.0016981268
62	0xbac76355	-0.0015212098
63	0xbba24089	-0.004951541

tabnet.encoder.initial_splitter.shared.glu_layers.0.bn.bn.running_mean f4 [64]
0	0x3c426131	0.011863993
1	0x3b88f08a	0.004179065
2	0xbb57efbe	-0.0032949294
3	0x3b3a4ad7	0.0028425956
4	0xbabe22ec	-0.0014506257
5	0xbb76b7dc	-0.003764621
6	0x3c5747b0	0.01313965
7	0xbad40dba	-0.0016178407
8	0x3c18385e	0.009290783
9	0xbc0c929d	-0.008579877
10	0x3b854199	0.0040666577
11	0xbb820aec	-0.003968587
12	0x3b10b9f4	0.0022083493
13	0xbca4a061	-0.020096006
14	0x3b32cdeb	0.0027283381
15	0xbbda76d1	-0.006666996
16	0x3c37f4d6	0.011227807
17	0xbb814526	-0.0039450107
18	0x3a0744fa	0.00051601196
19	0xbb311de1	-0.0027025866
20	0xba5aa761	-0.00083409814
21	0xbc4cbe1d	-0.012496498
22	0xbb0846d1	-0.0020794163
23	0xbc220fdb	-0.009891476
24	0xbce8c9a0	-0.028416455
25	0xbb0aa370	-0.0021154545
26	0xbc494c41	-0.012286247
27	0xbba10188	-0.0049135126
28	0x3c99c7cc	0.018772028
29	0x3c86b841	0.016445281
30	0x3c8d42da	0.017243791
31	0x3a47a778	0.00076162023
32	0x3c45a2f9	0.0120627815
33	0x3ba3afd5	0.004995326
34	0xbbd60960	-0.0065318793
35	0xbc4c9b42	-0.012488188
36	0xbbbcd1c7	-0.005762312
37	0xbc6c04d1	-0.014405445
38	0x3bf96eb1	0.0076120724
39	0x3bfbccb5	0.007684315
40	0xbc247512	-0.010037677
41	0x3c09174c	0.008367371
42	0xbbddf078	-0.006773051
43	0x3b546b46	0.0032412573
44	0x3c7af2ab	0.015316646
45	0x3b5a112d	0.0033274398
46	0xbbbc10db	-0.005739314
47	0x3b7fd178	0.0039034765
48	0x3c8a544b	0.016885897
49	0xbc066195	-0.008201976
50	0xbb251f3a	-0.0025195614
51	0x3bc04862	0.0058680037
52	0xbb882892	-0.004155227
53	0x3b882efa	0.0041559907
54	0x3bf23878	0.0073919855
55	0xbbed2376	-0.0072368933
56	0x3b920856	0.00445656
57	0xbc50ee2d	-0.012752098
58	0xbc3c77d2	-0.011503177
59	0x3c204f7d	0.0097845765
60	0x3bf3d77c	0.007441459
61	0xbb831725	-0.004000562
62	0xbb2a179d	-0.0025954016
63	0xbc6fc66c	-0.01463471

tabnet.encoder.initial_splitter.shared.glu_layers.0.bn.bn.running_var f4 [64]
0	0x40a1b2b8	5.0530663
1	0x40375460	2.8645248
2	0x405a32cd	3.4093506
3	0x414baba4	12.729404
4	0x40b0945c	5.5181103
5	0x41416f0d	12.089612
6	0x40b666ca	5.7000475
7	0x410e597e	8.896849
8	0x4039abb5	2.9011052
9	0x40a051eb	5.0099998
10	0x40af419d	5.4767594
11	0x40c0eece	6.029151
12	0x4088911a	4.2677126
13	0x40b9d029	5.80666
14	0x41103d99	9.0150385
15	0x40d52f63	6.6620345
16	0x4018a6b6	2.3851752
17	0x40eef138	7.4669456
18	0x40e1d0f3	7.0567565
19	0x4099b31a	4.803113
20	0x40c3a1ca	6.1134996
21	0x40976bc6	4.731906
22	0x40add85a	5.43266
23	0x404036bc	3.0033407
24	0x4184aa51	16.583162
25	0x413f712e	11.965132
26	0x4098efe8	4.7792854
27	0x40d2c540	6.5865784
28	0x40e765ce	7.2311773
29	0x4140730b	12.028087
30	0x41049e8b	8.288707
31	0x410f3ac6	8.951849
32	0x4100fb02	8.061281
33	0x412f03b7	10.938407
34	0x40a482d7	5.1409717
35	0x40ab3dba	5.351285
36	0x40c5283c	6.1611614
37	0x40cf1ee6	6.472522
38	0x40fd2584	7.9108295
39	0x4087f6cc	4.2488766
40	0x4150796e	13.029646
41	0x405d04a6	3.4534087
42	0x4139d23b	11.613826
43	0x40bd34ca	5.912694
44	0x40edb723	7.4286056
45	0x40da35ab	6.8190513
46	0x409a1081	4.8145146
47	0x4121bb11	10.1081705
48	0x40eec133	7.461084
49	0x408efb67	4.468189
50	0x4099b822	4.803727
51	0x40b5a522	5.676408
52	0x407279af	3.788677
53	0x40b65893	5.6983123
54	0x409f136d	4.9711213
55	0x40ca583c	6.323271
56	0x40bdc123	5.9298263
57	0x40e2d310	7.0882645
58	0x404f7979	3.241789
59	0x41406636	12.024954
60	0x407d41a0	3.9571304
61	0x40b9c277	5.8049884
62	0x40a373fd	5.1079087
63	0x40dcdacb	6.901708

tabnet.encoder.initial_splitter.shared.glu_layers.1.bn.bn.weight f4 [64]
0	0x3f7f1038	0.9963412
1	0x3f80128f	1.0005664
2	0x3f80015b	1.0000414
3	0x3f80205f	1.0009879
4	0x3f7efbb9	0.9960285
5	0x3f8020bc	1.000999
6	0x3f805d36	1.0028446
7	0x3f7fc072	0.99903023
8	0x3f800eaa	1.0004475
9	0x3f8073c3	1.0035328
10	0x3f7edbec	0.99554324
11	0x3f7fe886	0.9996418
12	0x3f7f0bc8	0.9962735
13	0x3f8101c6	1.0078666
14	0x3f806640	1.0031204
15	0x3f803b03	1.0018009
16	0x3f7ec1d2	0.99514496
17	0x3f7f442f	0.99713415
18	0x3f804743	1.0021747
19	0x3f7f4a8b	0.9972312
20	0x3f8099b3	1.0046905
21	0x3f7eb53a	0.9949528
22	0x3f7ee800	0.99572754
23	0x3f7fbb9c	0.99895644
24	0x3f80287f	1.0012358
25	0x3f7f702d	0.9978054
26	0x3f7ffb11	0.9999247
27	0x3f8014b4	1.0006318
28	0x3f7fb868	0.99890757
29	0x3f7f57f6	0.9974359
30	0x3f805726	1.0026596
31	0x3f7fe288	0.99955034
32	0x3f7f2e92	0.99680436
33	0x3f804699	1.0021545
34	0x3f7fdb61	0.9994412
35	0x3f80142d	1.0006157
36	0x3f7e687c	0.9937818
37	0x3f800a42	1.000313
38	0x3f7fe4ac	0.999583
39	0x3f80d8a8	1.0066118
40	0x3f803c89	1.0018474
41	0x3f808045	1.0039145
42	0x3f7fa199	0.99855953
43	0x3f803ea6	1.0019119
44	0x3f7f5d98	0.9975219
45	0x3f80d6ea	1.0065587
46	0x3f7f6865	0.9976867
47	0x3f7f48a4	0.99720216
48	0x3f804c4b	1.0023283
49	0x3f7ea56e	0.99471176
50	0x3f8070f7	1.0034474
51	0x3f7f29c7	0.9967312
52	0x3f80cb4a	1.0062039
53	0x3f7f5487	0.99738353
54	0x3f808cfd	1.0043026
55	0x3f7f42d3	0.9971134
56	0x3f7eb4f6	0.99494874
57	0x3f802973	1.0012649
58	0x3f7fe3eb	0.9995715
59	0x3f7e4b62	0.99333775
60	0x3f80a129	1.0049182
61	0x3f80967e	1.0045927
62	0x3f7fe205	0.99954253
63	0x3f80583f	1.002693

tabnet.encoder.initial_splitter.shared.glu_layers.1.bn.bn.bias f4 [64]
0	0xb90b4b8c	-0.00013284216
1	0x3b5f4060	0.003406547
2	0xbb26c81a	-0.002544886
3	0x3ba4c977	0.0050288993
4	0xbacbc577	-0.001554652
5	0x3b956cc1	0.0045600836
6	0xbb56e27a	-0.00327888
7	0x3bd8e97d	0.006619631
8	0xbbeabef9	-0.007163879
9	0x3aa08f5b	0.0012249755
10	0x3b29e005	0.002592088
11	0x3abc038e	0.0014344321
12	0xbb1fa001	-0.0024356844
13	0xbb08cd25	-0.0020874229
14	0xbb44f085	-0.0030050587
15	0xb93d12d6	-0.00018031462
16	0xbb5df00d	-0.0033865005
17	0xbbc8c979	-0.006127533
18	0x3a9ce310	0.0011969525
19	0xbb945a70	-0.0045273826
20	0xbbc72bc8	-0.006078217
21	0x3b798733	0.003807497
22	0x3b00c9be	0.0019651498
23	0xbb7c4c0a	-0.0038497471
24	0xbb0df5e6	-0.002166146
25	0x3c133180	0.00898397
26	0xba9cd6a5	-0.0011965825
27	0x3bfd9e6c	0.0077398326
28	0x3b9fa854	0.004872361
29	0x3ba28b0f	0.0049604247
30	0x3c022f7d	0.007945892
31	0x3ba58adb	0.0050519533
32	0xbb752ef7	-0.0037412026
33	0xba8ec6bb	-0.0010892967
34	0x394e7b15	0.00019691543
35	0x3881cd80	6.189477e-05
36	0xbb456dc4	-0.003012524
37	0x3a3a8d4c	0.0007116392
38	0x3b934fc6	0.0044955937
39	0xbbc25ffa	-0.0059318515
40	0xba7a1534	-0.00095399027
41	0xbae2d6f5	-0.0017306494
42	0xbb31f08b	-0.0027151431
43	0xba37be33	-0.0007009238
44	0xbae70895	-0.0017626459
45	0x3b82376e	0.003973893
46	0x3b59d939	0.0033241047
47	0x3a83f689	0.001006798
48	0xbba0d037	-0.0049076336
49	0x3968cca0	0.00022201473
50	0x3b05d1c0	0.002041921
51	0xbb143ca5	-0.0022619155
52	0x3b474c07	0.0030410306
53	0xbbc84146	-0.006111297
54	0xbbb17342	-0.005415351
55	0xba9a1543	-0.0011755604
56	0x3ae3905f	0.0017361752
57	0x39144688	0.00014140655
58	0x3aa6c4f1	0.0012723488
59	0x3b521b31	0.0032059664
60	0xbaee5c06	-0.0018185384
61	0xbbe565d5	-0.0070006647
62	0x3b7c4fda	0.0038499744
63	0xbb17c534	-0.0023158314

tabnet.encoder.initial_splitter.shared.glu_layers.1.bn.bn.running_mean f4 [64]
0	0x3e9883d1	0.29788068
1	0x3d64898d	0.05579524
2	0xbd3baf9b	-0.045821767
3	0xbd140046	-0.036133073
4	0xbb7f3279	-0.0038939996
5	0xbe00f156	-0.12592062
6	0x3e025e18	0.12731206
7	0xbce6fb0d	-0.028195882
8	0xbd5ba9c1	-0.053628687
9	0x3e1f8c55	0.15580876
10	0xbe99cf6c	-0.30041063
11	0xbe635cdd	-0.22203393
12	0x3ec193da	0.37808114
13	0x3e4f0f09	0.20220579
14	0x3dc58170	0.09643829
15	0xbd90f6b5	-0.07078306
16	0xbd95db43	-0.073172115
17	0x3f0ea516	0.5572065
18	0xbc8a2e2e	-0.016867723
19	0x3e8543ce	0.26028293
20	0x3d53dcec	0.05172436
21	0xbebdef1e	-0.37096494
22	0xbe331087	-0.17486773
23	0xbd7e31c7	-0.06205919
24	0x3ac39d24	0.0014924151
25	0xbe99be7f	-0.3002815
26	0xbb8ec660	-0.0043571442
27	0xbc1a4eb6	-0.00941818
28	0xbda4c452	-0.08045258
29	0xbdb66cfd	-0.089075066
30	0xbdb409c7	-0.087909274
31	0xbc4b0c0f	-0.012393012
32	0xbe4c87f8	-0.19973743
33	0xbd15bf06	-0.036559127
34	0x3ceb3928	0.028713778
35	0x3dc80010	0.09765637
36	0xbdec41a4	-0.115359575
37	0x3da34d92	0.0797378
38	0xbe1c9d5c	-0.15294403
39	0x3e1d4ffe	0.15362546
40	0x3d183b47	0.037165906
41	0xbe0be896	-0.13662943
42	0x3d2fbb61	0.042903308
43	0xbe8dd7b6	-0.27703637
44	0x3e8e5fac	0.27807367
45	0xbd423796	-0.047416292
46	0xbbba6158	-0.005687874
47	0xbe0cb445	-0.13740642
48	0x3e45aa6c	0.19303292
49	0x3e34052f	0.17580102
50	0x3d170afd	0.036875714
51	0xbcd794f7	-0.02631615
52	0x3db57659	0.08860464
53	0x3e598bfb	0.21244805
54	0xbe1c83a1	-0.15284587
55	0xbe033222	-0.12812093
56	0x3b8c2c82	0.0042777667
57	0x3dc2361f	0.09482979
58	0xbe65b5c3	-0.22432618
59	0xbd9cbdee	-0.07653414
60	0x3e5ef923	0.21774726
61	0x3ddc4676	0.10755627
62	0xbdf67207	-0.12033468
63	0xbd94b701	-0.07261468

tabnet.encoder.initial_splitter.shared.glu_layers.1.bn.bn.running_var f4 [64]
0	0x40243740	2.5658722
1	0x400bc4c7	2.1838853
2	0x404fe7f7	3.248533
3	0x40299830	2.6499138
4	0x40125045	2.2861493
5	0x402c384b	2.6909359
6	0x40606f84	3.5068064
7	0x4094ce64	4.650194
8	0x400f3ad6	2.237966
9	0x406551ed	3.5831254
10	0x4081cbe2	4.056138
11	0x3fee368e	1.8610399
12	0x402fc115	2.7461598
13	0x3ffa64dc	1.956203
14	0x3fd883e8	1.6915255
15	0x3fbba65a	1.4660141
16	0x403b76a9	2.9291174
17	0x4021204d	2.5175965
18	0x401902c4	2.3907938
19	0x4026cb94	2.6061754
20	0x3f9b88a1	1.2151071
21	0x3fe2a1a9	1.7705585
22	0x4086334c	4.193762
23	0x3fc754fb	1.5572809
24	0x403b0046	2.9218917
25	0x40cf7e30	6.4841537
26	0x3f9fb89a	1.2478211
27	0x407f7842	3.991715
28	0x40087ac0	2.132492
29	0x3fdf22f4	1.7432542
30	0x4023dd72	2.560391
31	0x4051fac4	3.2809305
32	0x400f32c8	2.2374744
33	0x3fc88fa9	1.5668842
34	0x4039ec15	2.9050343
35	0x40369bf5	2.8532689
36	0x3fc9a12b	1.575231
37	0x40863797	4.194286
38	0x3fcd96bf	1.6061629
39	0x40240196	2.5625968
40	0x404d0031	3.2031367
41	0x404fefed	3.249019
42	0x4049519a	3.1456056
43	0x40024659	2.0355437
44	0x40827c3f	4.0776668
45	0x4015ca4c	2.3404722
46	0x4088745c	4.264204
47	0x3fd58989	1.6682597
48	0x3fd07251	1.6284887
49	0x4015f858	2.3432827
50	0x401f43fd	2.4885247
51	0x3ff43f4f	1.908182
52	0x400e6bc8	2.2253284
53	0x4047a55f	3.1194685
54	0x3ff76a4f	1.9329318
55	0x3f828226	1.0195968
56	0x4022538e	2.5363498
57	0x40701192	3.7510724
58	0x405d3bf9	3.4567854
59	0x40029f5a	2.040976
60	0x3ff0e607	1.8820199
61	0x407d1f34	3.9550295
62	0x40533cc6	3.3005843
63	0x40163c10	2.347416

tabnet.encoder.initial_splitter.specifics.glu_layers.0.bn.bn.weight f4 [64]
0	0x3f7f6c17	0.99774307
1	0x3f7ebe78	0.9950938
2	0x3f7f7282	0.997841
3	0x3f808545	1.0040671
4	0x3f801865	1.0007445
5	0x3f801f88	1.0009623
6	0x3f8054ee	1.0025918
7	0x3f80effc	1.0073237
8	0x3f8075db	1.0035967
9	0x3f804744	1.0021749
10	0x3f8022ea	1.0010655
11	0x3f800c63	1.000378
12	0x3f7f96a6	0.99839246
13	0x3f8066e5	1.0031401
14	0x3f7f6d79	0.99776417
15	0x3f7e918b	0.9944083
16	0x3f80d3c3	1.0064625
17	0x3f80602b	1.0029348
18	0x3f801222	1.0005534
19	0x3f7de961	0.9918423
20	0x3f80a183	1.004929
21	0x3f7f7ad1	0.9979678
22	0x3f809bdf	1.0047568
23	0x3f7f1357	0.99638885
24	0x3f804004	1.0019536
25	0x3f80829b	1.0039858
26	0x3f7fa51e	0.99861324
27	0x3f7f52aa	0.9973551
28	0x3f802ce6	1.0013702
29	0x3f810240	1.0078812
30	0x3f8027b1	1.0012113
31	0x3f7fd66a	0.99936545
32	0x3f7f7a2e	0.99795806
33	0x3f7d10dd	0.98853856
34	0x3f7f76fb	0.99790925
35	0x3f806fdd	1.0034138
36	0x3f80220a	1.0010388
37	0x3f7eb71a	0.9949814
38	0x3f807406	1.0035408
39	0x3f7f189d	0.9964693
40	0x3f81040d	1.0079361
41	0x3f7ee992	0.9957515
42	0x3f7f19c8	0.99648714
43	0x3f7fdb8e	0.9994439
44	0x3f7e1be8	0.9926133
45	0x3f80b94a	1.0056546
46	0x3f800917	1.0002774
47	0x3f8091a4	1.0044446
48	0x3f803210	1.0015278
49	0x3f80ec9b	1.0072206
50	0x3f7fd476	0.99933565
51	0x3f8015ec	1.000669
52	0x3f802d4b	1.0013822
53	0x3f7f6ec4	0.9977839
54	0x3f801fc7	1.0009698
55	0x3f805a55	1.0027567
56	0x3f806b62	1.0032771
57	0x3f80cd22	1.0062602
58	0x3f7e2234	0.9927094
59	0x3f7f2e0e	0.9967965
60	0x3f80b86f	1.0056285
61	0x3f8048bd	1.0022198
62	0x3f80706c	1.0034308
63	0x3f807dd5	1.0038401

tabnet.encoder.initial_splitter.specifics.glu_layers.0.bn.bn.bias f4 [64]
0	0xbba2f2b5	-0.0049727806
1	0xbb6cbfaa	-0.0036124983
2	0x3a375139	0.0006992999
3	0x3a1051c2	0.0005505347
4	0x3be40fca	0.00695989
5	0x3b3b33f1	0.0028564895
6	0x3b83d63a	0.0040233405
7	0xba9824f1	-0.0011607689
8	0x3a2218d0	0.0006183507
9	0xbae71131	-0.0017629025
10	0xbbf9e202	-0.007625819
11	0x3bd3a422	0.006458775
12	0xb94c416a	-0.00019479325
13	0xbb2a7ea1	-0.0026015418
14	0x39cdc4eb	0.00039247362
15	0x3b84cf07	0.004053
16	0xba8762c7	-0.001032912
17	0x3c27aa02	0.010233404
18	0xbb2391b4	-0.0024958672
19	0x3a6fc334	0.0009146214
20	0x3a93625a	0.0011244521
21	0x3bca3acd	0.0061715604
22	0x3baf4b5b	0.0053495592
23	0xbc482315	-0.012215395
24	0xbb3fea6d	-0.0029284016
25	0xbbb672f9	-0.005567905
26	0xbb15cf76	-0.0022859252
27	0x3bc00388	0.005859796
28	0xbc28a9a9	-0.010294356
29	0x3b6c5a11	0.0036064426
30	0x3b1c1be0	0.0023820326
31	0x3bd750cd	0.0065709115
32	0xba9d369d	-0.0011994425
33	0x3aadded9	0.0013265266
34	0xbb225030	-0.0024767034
35	0x3b93cbbd	0.0045103715
36	0x3b0f5449	0.0021870306
37	0x3afe3774	0.0019395188
38	0x3a4413c6	0.0007479753
39	0x3bdd4f98	0.006753873
40	0x3b01715e	0.001975141
41	0x3a6d6041	0.00090551755
42	0x3a6d0076	0.0009040901
43	0xba180c02	-0.0005800129
44	0x3a97b7a2	0.0011575113
45	0x3ad2a837	0.001607186
46	0xbaebf85a	-0.0018003092
47	0xbbcac994	-0.0061885808
48	0x3ba6b6bd	0.005087702
49	0x3b3ab31d	0.0028488107
50	0xb78ae659	-1.6558146e-05
51	0xbbfe8313	-0.00776709
52	0x3bd33205	0.006445172
53	0xbb170c7c	-0.0023048213
54	0x3b310ef2	0.0027016965
55	0xbb56f38f	-0.003279898
56	0x3ae76a9e	0.0017655676
57	0x3b1bad25	0.0023754325
58	0x3adc142a	0.0016790677
59	0xbb238640	-0.0024951845
60	0x3a24fe8d	0.00062940345
61	0x3be0c544	0.0068594534
62	0x3b400f09	0.0029305837
63	0xbaeadb96	-0.0017918225

tabnet.encoder.initial_splitter.specifics.glu_layers.0.bn.bn.running_mean f4 [64]
0	0xbd01c7a1	-0.03168452
1	0x3db2e5d1	0.0873524
2	0xbe52487b	-0.20535462
3	0x3d25fde6	0.04052534
4	0xbd487aba	-0.048945166
5	0xbe399416	-0.18122897
6	0x3e87e0e8	0.26538777
7	0x3d595f6a	0.05306951
8	0x3e385e86	0.18004808
9	0x3c726b58	0.014796101
10	0xbdcc4efb	-0.09976002
11	0xbf051d19	-0.51997524
12	0x3db9f14a	0.09079225
13	0xbe0972a7	-0.13422643
14	0x3e29592c	0.16537923
15	0xbddc5fe6	-0.10760479
16	0x3e728376	0.23682961
17	0x3e054a8c	0.13016719
18	0xbc973488	-0.018457666
19	0x3e167c19	0.14695777
20	0x3d894df9	0.06704325
21	0x3ea00e07	0.31260702
22	0x3de33f69	0.11096079
23	0x3dfa320c	0.12216577
24	0xbe3d6df4	-0.18498975
25	0xbd5132c7	-0.051073816
26	0x3dd17757	0.102278404
27	0xbdc981ac	-0.09839186
28	0x3e223eba	0.15844241
29	0xbe92616f	-0.2858996
30	0x3a6af192	0.00089623884
31	0x3dc40d10	0.09572804
32	0x3e1c0fb2	0.15240362
33	0xbdc5e6c2	-0.09663154
34	0xbebee61c	-0.37284935
35	0xbc8ec732	-0.017428968
36	0xbce71b05	-0.028211126
37	0xbdecc3b5	-0.11560766
38	0x3e77c0d4	0.24194652
39	0xbc0732f8	-0.008251898
40	0xbd95c5ce	-0.07313119
41	0xbe828666	-0.25493163
42	0x3e9d9926	0.30780905
43	0xbd85dd66	-0.06536369
44	0xbdffb767	-0.12486153
45	0x3d84e600	0.064891815
46	0xbe57c455	-0.21070988
47	0xbda688c5	-0.081315555
48	0x3e073e04	0.13207251
49	0xbd571392	-0.052508898
50	0xbe29cec4	-0.16582781
51	0xbde78171	-0.11303986
52	0xbdb03bdf	-0.086051695
53	0x3d3158bc	0.043297514
54	0x3e869ed4	0.2629305
55	0xbe5e1fc3	-0.21691804
56	0x3e6113c2	0.21980193
57	0xbe4337f7	-0.19064318
58	0x3d6efbcd	0.058345605
59	0xbe764a6c	-0.24051827
60	0xbde76c6c	-0.11299977
61	0x3ddc3ad9	0.10753412
62	0xbdb004ae	-0.085946426
63	0xbe1fb9b1	-0.1559818

tabnet.encoder.initial_splitter.specifics.glu_layers.0.bn.bn.running_var f4 [64]
0	0x4040c264	3.0118647
1	0x3fd1170c	1.6335158
2	0x4024177e	2.5639338
3	0x4001dce3	2.0291069
4	0x40803807	4.0068393
5	0x4086d053	4.21293
6	0x40005d9c	2.0057135
7	0x3ff83ac9	1.939294
8	0x401a322b	2.409312
9	0x400101bd	2.015731
10	0x403a70f4	2.913144
11	0x40825dfe	4.0739737
12	0x3ff9de17	1.9520901
13	0x401afb1b	2.4215763
14	0x3fb21ad7	1.3914441
15	0x400722c2	2.1114964
16	0x4012ffc1	2.29686
17	0x40589ba3	3.3844993
18	0x401dfe3b	2.468642
19	0x4014d64a	2.3255792
20	0x4040cef5	3.0126317
21	0x4043952e	3.0559802
22	0x400ca7c5	2.1977398
23	0x40099547	2.1497362
24	0x4009752e	2.147777
25	0x401c135c	2.4386816
26	0x400af05b	2.1709201
27	0x40247e52	2.57021
28	0x402c1a84	2.6891184
29	0x40e20667	7.0632815
30	0x3fa1559f	1.2604254
31	0x407cd492	3.9504743
32	0x3fd97d46	1.6991355
33	0x4019d350	2.4035225
34	0x4080ac0d	4.0210023
35	0x4047d53c	3.1223898
36	0x4046fd98	3.1092281
37	0x4083d5d0	4.11985
38	0x4097fe36	4.7497816
39	0x40452151	3.0801585
40	0x3fa01838	1.2507391
41	0x3ffdfc27	1.9842576
42	0x3f9c6fe5	1.2221648
43	0x3fb0e742	1.3820574
44	0x402c9e9c	2.6971807
45	0x4055cb63	3.3405387
46	0x403b3c2c	2.9255476
47	0x3ff3a7bb	1.9035562
48	0x3fd23075	1.6421038
49	0x400cc62d	2.1995957
50	0x40447d51	3.0701487
51	0x401f8396	2.4924064
52	0x400a7d6d	2.1639054
53	0x3ffa634d	1.9561554
54	0x403a8c3a	2.9148088
55	0x40850702	4.1571054
56	0x404c303d	3.1904442
57	0x404450af	3.0674245
58	0x400f0075	2.234403
59	0x3fe13677	1.7594746
60	0x40461214	3.0948534
61	0x406d2fef	3.7060506
62	0x3fc9eab7	1.5774754
63	0x403e06c7	2.9691637

tabnet.encoder.initial_splitter.specifics.glu_layers.1.bn.bn.weight f4 [64]
0	0x3f800000	1.0
1	0x3f800000	1.0
2	0x3f800000	1.0
3	0x3f800000	1.0
4	0x3f800000	1.0
5	0x3f800000	1.0
6	0x3f800000	1.0
7	0x3f800000	1.0
8	0x3f800000	1.0
9	0x3f800000	1.0
10	0x3f800000	1.0
11	0x3f800000	1.0
12	0x3f800000	1.0
13	0x3f800000	1.0
14	0x3f800000	1.0
15	0x3f800000	1.0
16	0x3f8056ab	1.0026449
17	0x3f80829a	1.0039856
18	0x3f80659e	1.0031011
19	0x3f7f82b2	0.998088
20	0x3f8050ee	1.0024698
21	0x3f7ef934	0.99599004
22	0x3f7e2e9f	0.9928989
23	0x3f7ff1cd	0.99978334
24	0x3f7fbf15	0.99900943
25	0x3f8062d8	1.0030165
26	0x3f7f7787	0.9979176
27	0x3f7fdbad	0.99944574
28	0x3f7f660f	0.99765104
29	0x3f7f5adf	0.99748033
30	0x3f7ed931	0.9955016
31	0x3f7f83af	0.9981031
32	0x3f800000	1.0
33	0x3f800000	1.0
34	0x3f800000	1.0
35	0x3f800000	1.0
36	0x3f800000	1.0
37	0x3f800000	1.0
38	0x3f800000	1.0
39	0x3f800000	1.0
40	0x3f800000	1.0
41	0x3f800000	1.0
42	0x3f800000	1.0
43	0x3f800000	1.0
44	0x3f800000	1.0
45	0x3f800000	1.0
46	0x3f800000	1.0
47	0x3f800000	1.0
48	0x3f806073	1.0029434
49	0x3f80a232	1.0049498
50	0x3f803a43	1.001778
51	0x3f804c16	1.002322
52	0x3f7e8051	0.99414545
53	0x3f8014ef	1.0006388
54	0x3f8090ca	1.0044186
55	0x3f80c539	1.0060188
56	0x3f7ea5c8	0.9947171
57	0x3f810275	1.0078875
58	0x3f8061d1	1.0029851
59	0x3f7e72db	0.99394006
60	0x3f803309	1.0015575
61	0x3f804360	1.0020561
62	0x3f80966f	1.0045909
63	0x3f7f4f9d	0.99730855

tabnet.encoder.initial_splitter.specifics.glu_layers.1.bn.bn.bias f4 [64]
0	0x00000000	0.0
1	0x00000000	0.0
2	0x00000000	0.0
3	0x00000000	0.0
4	0x00000000	0.0
5	0x00000000	0.0
6	0x00000000	0.0
7	0x00000000	0.0
8	0x00000000	0.0
9	0x00000000	0.0
10	0x00000000	0.0
11	0x00000000	0.0
12	0x00000000	0.0
13	0x00000000	0.0
14	0x00000000	0.0
15	0x00000000	0.0
16	0xbae66f1b	-0.001758072
17	0xbb810aa8	-0.003938038
18	0x3bb35569	0.005472828
19	0x3bf7997a	0.0075561376
20	0x3a331d27	0.0006832652
21	0x3a970b2c	0.0011523715
22	0xbb89f191	-0.004209705
23	0x3ba01669	0.004885484
24	0x3be177cb	0.0068807355
25	0xbafc9893	-0.0019271545
26	0x3bdd37b8	0.006751027
27	0xbb9f8cc1	-0.004869074
28	0x3b52a0bb	0.003213926
29	0x3b5b5c44	0.0033471743
30	0x3a96636a	0.001147372
31	0xbb3cf181	-0.002883047
32	0x00000000	0.0
33	0x00000000	0.0
34	0x00000000	0.0
35	0x00000000	0.0
36	0x00000000	0.0
37	0x00000000	0.0
38	0x00000000	0.0
39	0x00000000	0.0
40	0x00000000	0.0
41	0x00000000	0.0
42	0x00000000	0.0
43	0x00000000	0.0
44	0x00000000	0.0
45	0x00000000	0.0
46	0x00000000	0.0
47	0x00000000	0.0
48	0x39ad7688	0.00033085444
49	0x3b288967	0.0025716664
50	0x3b1a76f4	0.0023569437
51	0xbade2cac	-0.0016950569
52	0x3b4885df	0.0030597372
53	0x39c74e80	0.00038014725
54	0xbbe4e643	-0.006985457
55	0xbb30662e	-0.0026916373
56	0x3b7c0280	0.0038453639
57	0xbb66954c	-0.0035184203
58	0xbaff94d7	-0.0019499314
59	0x3aac0e74	0.0013126866
60	0xbae8b873	-0.0017755165
61	0xbb50dbd3	-0.0031869307
62	0xbbf99d35	-0.0076176175
63	0x3a1a18cc	0.0005878329

tabnet.encoder.initial_splitter.specifics.glu_layers.1.bn.bn.running_mean f4 [64]
0	0xbe28028f	-0.16407226
1	0xbea23470	-0.31680632
2	0xbd94821f	-0.07251381
3	0xbc266552	-0.010155993
4	0xbdab929a	-0.083775714
5	0xbe543ff1	-0.20727517
6	0xbdaf49f4	-0.08559027
7	0x3d53e37a	0.05173061
8	0x3e7c4840	0.24636936
9	0xbdb70a86	-0.08937554
10	0x3d9b6c62	0.07589032
11	0xbc9057a9	-0.017619925
12	0xbe6b6019	-0.22985877
13	0x3cc05259	0.023476766
14	0x3d20b192	0.039231844
15	0xbe8b84f5	-0.27249876
16	0xbe713187	-0.2355405
17	0xbc401eba	-0.011726076
18	0xbd769796	-0.060203157
19	0x3bd53a9e	0.006507232
20	0x3eb90b76	0.36141557
21	0xbca86ec7	-0.020560635
22	0x3ea9cbb9	0.3316324
23	0xbdd0fd31	-0.102045424
24	0xbd8aaa77	-0.06770795
25	0x3e323c48	0.17405808
26	0x3e042c01	0.12907411
27	0x3e9613cb	0.29311976
28	0xbe17e65f	-0.14833973
29	0x3ca3876a	0.019962031
30	0x3cf5c06c	0.02999898
31	0x3dd1f620	0.10252023
32	0x3da30e16	0.07961671
33	0x3e628f79	0.22125043
34	0xbd719cab	-0.0589873
35	0xbd6fb82a	-0.058525242
36	0xbeb0b434	-0.34512484
37	0x3d8cb7fe	0.06871031
38	0xbd5ff020	-0.05467236
39	0x3e336506	0.17519006
40	0x3e940479	0.28909662
41	0x3db22e5d	0.08700249
42	0x3b80adb7	0.0039269584
43	0x3e020484	0.12697035
44	0xbe3287b1	-0.17434575
45	0x3ec14efd	0.37755576
46	0x3dee684a	0.11640985
47	0x3e090f6e	0.13384792
48	0xbce8ed1c	-0.028433375
49	0x3e6ea978	0.23306835
50	0x3dabe046	0.08392386
51	0xbde9caea	-0.11415656
52	0x3e20befe	0.15697858
53	0x3dcf9285	0.10135368
54	0xbdd322d7	-0.103093795
55	0xbe5add2b	-0.21373431
56	0xbeb37a55	-0.3505427
57	0x3baed499	0.005335402
58	0x3e06b8fc	0.13156503
59	0xbe0b8132	-0.13623503
60	0xbe0845b7	-0.13307844
61	0x3d554d89	0.052075896
62	0xba8844fa	-0.0010396533
63	0xbde654de	-0.11246656

tabnet.encoder.initial_splitter.specifics.glu_layers.1.bn.bn.running_var f4 [64]
0	0x407b3b1d	3.925483
1	0x3ff7f962	1.937298
2	0x4025da22	2.5914388
3	0x402102d5	2.5157979
4	0x402d70ec	2.7100172
5	0x3f96a068	1.1767702
6	0x3fe51ad9	1.7898818
7	0x404e7ae1	3.22625
8	0x3fd3ccd1	1.654688
9	0x3f8d9edd	1.1064106
10	0x40413cc1	3.0193331
11	0x3fa184b0	1.2618618
12	0x4001ee7f	2.0301816
13	0x4027311e	2.6123729
14	0x40c956a8	6.291828
15	0x402badd7	2.6824853
16	0x40742b82	3.8151555
17	0x408a4cb6	4.321864
18	0x405b9ca6	3.431436
19	0x405b20d7	3.4238794
20	0x3ff40ba5	1.9066054
21	0x40157c55	2.3357136
22	0x4089f345	4.310946
23	0x408b1ff0	4.3476486
24	0x40cec476	6.461482
25	0x402b304c	2.6748228
26	0x3fd616f5	1.6725756
27	0x40df1023	6.97072
28	0x4089e5c6	4.3092985
29	0x402b4402	2.6760259
30	0x40709875	3.7593052
31	0x3fc2e4e5	1.5226103
32	0x3ffee33d	1.9913098
33	0x40906b67	4.5131106
34	0x3ff2ec21	1.8978311
35	0x3fcfdb70	1.6238842
36	0x40a36cef	5.1070476
37	0x407e4a33	3.9732788
38	0x40795f82	3.8964543
39	0x4007b47b	2.1203907
40	0x40a909db	5.282453
41	0x40233bee	2.5505328
42	0x40520da6	3.282083
43	0x3fca62a6	1.5811355
44	0x40287897	2.6323602
45	0x40337456	2.8039756
46	0x40bc34b8	5.8814354
47	0x4006946a	2.1028085
48	0x3fafdc8a	1.3739178
49	0x409865e7	4.7624393
50	0x406ac11d	3.6680367
51	0x3fcc7598	1.5973387
52	0x3ffa911f	1.9575537
53	0x400edc5f	2.2322004
54	0x40082684	2.1273508
55	0x40b3cc93	5.6187224
56	0x4037482d	2.8637803
57	0x3fb35f44	1.4013448
58	0x401dac58	2.463644
59	0x40639c5b	3.5564182
60	0x3ff4c26a	1.912183
61	0x4058609f	3.3808973
62	0x3f92e83d	1.1477123
63	0x4094f6dd	4.6551347

tabnet.encoder.feat_transformers.0.shared.glu_layers.0.bn.bn.weight f4 [64]
0	0x3f7e47de	0.9932841
1	0x3f7ff9ad	0.9999035
2	0x3f7fed93	0.99971884
3	0x3f7fa622	0.99862874
4	0x3f80717e	1.0034635
5	0x3f7f29a8	0.9967294
6	0x3f7f8fa2	0.9982854
7	0x3f800bae	1.0003564
8	0x3f7e8643	0.9942362
9	0x3f7ff318	0.99980307
10	0x3f80cb85	1.0062109
11	0x3f7f6fdc	0.9978006
12	0x3f7e0684	0.9922869
13	0x3f806628	1.0031176
14	0x3f7f1cc7	0.99653286
15	0x3f801f8d	1.0009629
16	0x3f7ec36b	0.99516934
17	0x3f7f4b29	0.9972406
18	0x3f7f6219	0.9975906
19	0x3f7efdab	0.99605817
20	0x3f7f1e1b	0.9965531
21	0x3f7e9885	0.99451476
22	0x3f813b7c	1.0096278
23	0x3f7ee7b1	0.99572283
24	0x3f80b5ea	1.0055516
25	0x3f7ebcab	0.99506634
26	0x3f802a31	1.0012876
27	0x3f805bb9	1.0027992
28	0x3f7dbd46	0.99116933
29	0x3f8146eb	1.0099767
30	0x3f80b899	1.0056335
31	0x3f8055d2	1.002619
32	0x3f800028	1.0000048
33	0x3f800da7	1.0004166
34	0x3f80ebd1	1.0071965
35	0x3f8000e4	1.0000272
36	0x3f7f7782	0.9979173
37	0x3f7de0d0	0.9917116
38	0x3f7e757a	0.99398005
39	0x3f809165	1.0044371
40	0x3f7e91d5	0.9944127
41	0x3f808216	1.0039699
42	0x3f80ed98	1.0072508
43	0x3f8052b1	1.0025235
44	0x3f7e99f7	0.9945368
45	0x3f80e783	1.0070652
46	0x3f80fd23	1.0077251
47	0x3f80321d	1.0015293
48	0x3f7df44d	0.992009
49	0x3f81069c	1.0080142
50	0x3f8000e6	1.0000274
51	0x3f80cfe7	1.0063447
52	0x3f7f17b0	0.9964552
53	0x3f7f6892	0.99768937
54	0x3f808ee0	1.0043602
55	0x3f80b14d	1.0054108
56	0x3f816846	1.0109947
57	0x3f7e6a45	0.99380904
58	0x3f7fc7b1	0.9991408
59	0x3f7e6d1e	0.9938525
60	0x3f8046fb	1.0021662
61	0x3f811c02	1.0086672
62	0x3f803eba	1.0019143
63	0x3f80fec5	1.007775

tabnet.encoder.feat_transformers.0.shared.glu_layers.0.bn.bn.bias f4 [64]
0	0x3b79aaa6	0.00380961
1	0xbb33d3ee	-0.0027439552
2	0xbc0c5e15	-0.008567353
3	0x3846c494	4.7389956e-05
4	0xbb8609a5	-0.004090505
5	0xbb89cb8f	-0.0042051743
6	0x3a825062	0.0009942169
7	0x3b97c5ff	0.0046317573
8	0x3b8620f3	0.0040932833
9	0x3bb89e1b	0.005634082
10	0x3b03f5ca	0.0020135515
11	0xb9e460ad	-0.00043559578
12	0x3a8518e9	0.0010154519
13	0x3b2b4822	0.0026135524
14	0xbad77833	-0.001643902
15	0x3be24f17	0.006906401
16	0x3abd4ed6	0.0014443051
17	0xbb934676	-0.0044944836
18	0x3a97e576	0.001158877
19	0xbc038c16	-0.008029005
20	0x3c24feb2	0.01007049
21	0xbb0b3efc	-0.0021247258
22	0x38150bd2	3.5535377e-05
23	0xbb47ee5b	-0.0030507061
24	0xbbf64400	-0.0075154305
25	0xbb38fad9	-0.0028225689
26	0x3bca5098	0.0061741583
27	0xbb89cff9	-0.0042057005
28	0x3c06087c	0.008180734
29	0x3bab4b42	0.0052274773
30	0xb90fa371	-0.0001369843
31	0x3c37d80e	0.011220945
32	0xbc09c505	-0.0084087895
33	0xbb1c2fee	-0.002383228
34	0xbb1ded2e	-0.002409767
35	0xbb90fe19	-0.004424822
36	0x3b8650ad	0.004098973
37	0xba83e63f	-0.0010063126
38	0x3c13a89b	0.009012367
39	0xbaa2010e	-0.0012359933
40	0xbb5371f2	-0.0032263962
41	0xb90cf5d4	-0.00013443019
42	0x3bc04a9a	0.005868268
43	0xbaa98701	-0.0012933911
44	0xba8e52b8	-0.0010858392
45	0xb8fe5c02	-0.000121288016
46	0xbb9c3204	-0.0047667045
47	0x3b4c59e2	0.0031181504
48	0x3ae84aa6	0.0017722442
49	0xbbb897a0	-0.0056333095
50	0xbb5e649e	-0.0033934484
51	0xbacd6470	-0.0015670191
52	0x39bbb33b	0.00035800957
53	0xbb8e1813	-0.004336366
54	0x3b39f120	0.0028372481
55	0xbc118b49	-0.008883306
56	0xbafc3aeb	-0.0019243633
57	0x3b89d1a9	0.0042059016
58	0x3b1d9caf	0.002404969
59	0x3bbb13ac	0.005709132
60	0xbc35a550	-0.011086777
61	0x3b579caf	0.0032899787
62	0x3b9b33f8	0.0047364198
63	0x3b5646a8	0.0032695923

tabnet.encoder.feat_transformers.0.shared.glu_layers.0.bn.bn.running_mean f4 [64]
0	0x3d7daf4c	0.061934754
1	0x3c8214f4	0.015879132
2	0xbc545b9b	-0.012961294
3	0xbc9401ae	-0.018067207
4	0xbd757fde	-0.059936397
5	0x3e095666	0.13411865
6	0x3cac75d7	0.021052284
7	0xbc385043	-0.011249605
8	0x3c1df14c	0.009640049
9	0xbc4e0130	-0.012573525
10	0x3bf3725d	0.0074294046
11	0x3be1ce24	0.006891029
12	0xbc8c958a	-0.01716115
13	0xbd718384	-0.058963314
14	0x3ca88fd5	0.020576397
15	0x3da12184	0.07867721
16	0xbcafa851	-0.021442564
17	0x3d46252a	0.048375286
18	0xbd29233e	-0.041293375
19	0xbe065994	-0.13120109
20	0xbbc161b8	-0.0059015416
21	0xbc0dc996	-0.008654019
22	0x3c964205	0.018342027
23	0xbd90a0f3	-0.070619486
24	0x3b245d2c	0.0025079949
25	0xbddea611	-0.108715184
26	0x3c03e01a	0.008049035
27	0xbd22abe8	-0.039714724
28	0xbd308950	-0.0430997
29	0xbd84bf77	-0.064818315
30	0x3c136189	0.008995422
31	0x3b7f9146	0.0038996502
32	0x37073e82	8.061181e-06
33	0xbd46bfdf	-0.048522826
34	0x3d2b3968	0.041802794
35	0xbd18aaa7	-0.03727212
36	0xbc255960	-0.010092109
37	0x3d0d2b2a	0.034464993
38	0xbd77a4e6	-0.060459994
39	0xbca42e64	-0.020041652
40	0xbe017349	-0.12641634
41	0x3d01129d	0.03151189
42	0xbd269faf	-0.04067963
43	0x3d78fca4	0.060787812
44	0xbd4e36ac	-0.050345108
45	0x3cf798ce	0.03022423
46	0xbd6ad4ae	-0.057331733
47	0xbd877f33	-0.06616058
48	0x3d1af2d3	0.03782923
49	0x3cbc85a0	0.023012936
50	0x3d8d0d49	0.068872996
51	0xbd8c70a0	-0.06857419
52	0xbc8555e9	-0.016276317
53	0x3b327bf1	0.002723452
54	0xbcb860c6	-0.022507083
55	0x3c8534de	0.01626056
56	0x3bd8937f	0.00660938
57	0xbc497130	-0.012295052
58	0xbc7b2fb6	-0.015331199
59	0xbd27c99c	-0.040963754
60	0xbb4b7677	-0.0031045952
61	0x3d25a21d	0.040437806
62	0xbcc62204	-0.024186142
63	0xbd6b0040	-0.057373285

tabnet.encoder.feat_transformers.0.shared.glu_layers.0.bn.bn.running_var f4 [64]
0	0x3ebafd60	0.36521435
1	0x3ea21516	0.31656712
2	0x3ea8607c	0.32886112
3	0x3f083407	0.5320439
4	0x3ead49db	0.3384541
5	0x3ed53616	0.41642827
6	0x3ec6671e	0.38750547
7	0x3eda72a6	0.42665595
8	0x3eafdb4d	0.34347
9	0x3ec113ad	0.37710324
10	0x3ead2fef	0.33825633
11	0x3eb81b41	0.35958293
12	0x3ebc4989	0.36774853
13	0x3ebd8a3b	0.37019524
14	0x3ec57e72	0.38573033
15	0x3ec66d81	0.3875542
16	0x3ead710b	0.33875307
17	0x3eaa0ad0	0.33211374
18	0x3ec3dc05	0.382538
19	0x3ebc02ef	0.36720988
20	0x3eb85a84	0.36006558
21	0x3ea7a417	0.32742378
22	0x3ec28dd3	0.37998828
23	0x3eb2d3f5	0.34927335
24	0x3ede8786	0.4346277
25	0x3eba4b76	0.36385697
26	0x3ead9675	0.33903852
27	0x3eaa012a	0.33204013
28	0x3eae5e3a	0.34056264
29	0x3ed72fb8	0.42028594
30	0x3ec658dd	0.38739672
31	0x3ecaa6bb	0.3958033
32	0x3ec93669	0.39299324
33	0x3ef3e347	0.47634336
34	0x3ea72f23	0.3265315
35	0x3eb4d963	0.35322103
36	0x3ed89a27	0.4230511
37	0x3ebdf460	0.37100506
38	0x3edb24f8	0.42801642
39	0x3eb692f1	0.35658982
40	0x3eecc78d	0.46245995
41	0x3eab2c60	0.33432293
42	0x3f02a166	0.51027524
43	0x3eb9da80	0.36299515
44	0x3ec1d683	0.37858972
45	0x3eab80e9	0.33496788
46	0x3ed30a8c	0.41218984
47	0x3f017db5	0.5058244
48	0x3eca5361	0.39516738
49	0x3ec0c6c7	0.37651655
50	0x3eacd358	0.33754992
51	0x3eadccb0	0.33945227
52	0x3eb0009c	0.34375465
53	0x3ebd84a3	0.37015256
54	0x3eae4205	0.34034744
55	0x3ef31a0f	0.4748082
56	0x3ed4387f	0.41449353
57	0x3ed726e6	0.42021865
58	0x3ea5593e	0.3229465
59	0x3f005897	0.5013518
60	0x3eaa5108	0.33264947
61	0x3eacf3fe	0.337799
62	0x3ecda849	0.40167454
63	0x3ead5ad2	0.33858353

tabnet.encoder.feat_transformers.0.shared.glu_layers.1.bn.bn.weight f4 [64]
0	0x3f7fbacb	0.998944
1	0x3f804eee	1.0024087
2	0x3f7da077	0.99072975
3	0x3f8018d9	1.0007583
4	0x3f80d3f9	1.0064689
5	0x3f7fea59	0.9996696
6	0x3f7f428d	0.99710923
7	0x3f809fc5	1.0048758
8	0x3f811d88	1.0087137
9	0x3f803bee	1.0018289
10	0x3f7f729a	0.99784243
11	0x3f8058af	1.0027064
12	0x3f7f48ca	0.9972044
13	0x3f7ed995	0.99550754
14	0x3f8019f6	1.0007923
15	0x3f7e3705	0.99302703
16	0x3f807ce8	1.0038118
17	0x3f810610	1.0079975
18	0x3f7ee7f9	0.9957271
19	0x3f7fa445	0.9986003
20	0x3f810b15	1.0081507
21	0x3f80884d	1.0041596
22	0x3f8012a5	1.000569
23	0x3f7f560a	0.9974066
24	0x3f7dff38	0.9921756
25	0x3f7ed8de	0.99549663
26	0x3f7fb080	0.9987869
27	0x3f7d277f	0.9888839
28	0x3f806d53	1.0033363
29	0x3f7e2950	0.9928179
30	0x3f7e7324	0.9939444
31	0x3f80bd01	1.005768
32	0x3f7ee54c	0.9956863
33	0x3f80b735	1.005591
34	0x3f7f8883	0.99817675
35	0x3f7f3483	0.996895
36	0x3f8099f7	1.0046986
37	0x3f7e0740	0.9922981
38	0x3f800463	1.0001339
39	0x3f7f3364	0.9968779
40	0x3f80c8ee	1.0061319
41	0x3f7f2bcb	0.996762
42	0x3f7df2e0	0.9919872
43	0x3f805c9e	1.0028265
44	0x3f80b62d	1.0055596
45	0x3f7e88f0	0.994277
46	0x3f806e55	1.0033671
47	0x3f807f1f	1.0038794
48	0x3f7ee24f	0.9956407
49	0x3f7e3782	0.9930345
50	0x3f7f3346	0.9968761
51	0x3f8079bb	1.0037149
52	0x3f81086b	1.0080694
53	0x3f8054c8	1.0025873
54	0x3f7deeda	0.99192584
55	0x3f80aaf5	1.0052172
56	0x3f7e64cc	0.99372554
57	0x3f800119	1.0000335
58	0x3f7e16d0	0.9925356
59	0x3f7dd308	0.99150133
60	0x3f7f0613	0.99618644
61	0x3f7fb2b3	0.9988205
62	0x3f7e79e7	0.9940476
63	0x3f7ebc45	0.99506027

tabnet.encoder.feat_transformers.0.shared.glu_layers.1.bn.bn.bias f4 [64]
0	0x3bb63214	0.005560169
1	0x3b0bb555	0.00213178
2	0xbb7a4168	-0.0038185958
3	0x3a08797d	0.00052060914
4	0x3bdde09f	0.0067711617
5	0xba825b71	-0.0009945465
6	0x3abce9f4	0.0014412985
7	0xbb08e431	-0.0020887966
8	0x3c061f7e	0.008186219
9	0xbb548d64	-0.0032432908
10	0xbb9db10f	-0.004812367
11	0xbc2737b7	-0.010206155
12	0x3b82c33e	0.00399056
13	0x3c3b946b	0.01144896
14	0x3b8b7888	0.004256312
15	0xbc24bfc2	-0.010055484
16	0x3c118f97	0.008884332
17	0xb9a11079	-0.00030720586
18	0x3c014c2a	0.007891694
19	0x3accc590	0.0015622843
20	0x3af5857d	0.0018731799
21	0xbba4704e	-0.0050182706
22	0x3bba256a	0.0056807296
23	0xbc1a7f9b	-0.009429838
24	0x3bf82a16	0.0075733764
25	0x3afd462c	0.0019323281
26	0xbb14a1b4	-0.002267939
27	0xbbce7c86	-0.0063014654
28	0x3b87f0d6	0.004148583
29	0x3c1024cf	0.008797838
30	0x3a668769	0.00087939814
31	0xbbc4527e	-0.005991279
32	0xba146598	-0.00056608906
33	0xbaaf04fd	-0.0013352927
34	0xbc0aeb33	-0.008478927
35	0x3b4e2055	0.0031452377
36	0x3b3a9a9a	0.0028473497
37	0x3b046888	0.0020203907
38	0xbbc00bcc	-0.0058607813
39	0x3bad12c8	0.00528178
40	0x3c091d0f	0.0083687445
41	0x3bbd4ff5	0.005777354
42	0xb73d54e8	-1.1285047e-05
43	0x3b378293	0.0028001412
44	0xbadf42cc	-0.0017033457
45	0x3b8df618	0.004332315
46	0x3a269ffc	0.0006356237
47	0xbbbf3da1	-0.005836204
48	0x3b2e1a0f	0.0026565825
49	0x3c1eb3a1	0.009686382
50	0x3a348ad0	0.000688714
51	0xbb0e97d2	-0.0021757972
52	0x3c11e637	0.008904985
53	0x3bd43b7e	0.0064768186
54	0x3b90c4cf	0.0044179927
55	0xbacad6ec	-0.0015475429
56	0xbba3ec3b	-0.005002526
57	0xbc05b7b1	-0.008161471
58	0x3b09f28e	0.0021049115
59	0xbc1c3dfe	-0.009536264
60	0x3bac36e7	0.0052555683
61	0xbc225c83	-0.009909752
62	0xbbb52d1e	-0.00552906
63	0x3c0a048a	0.008423934

tabnet.encoder.feat_transformers.0.shared.glu_layers.1.bn.bn.running_mean f4 [64]
0	0x3dace54d	0.08442173
1	0xbc892ea8	-0.01674588
2	0xbba308fa	-0.0049754353
3	0xbdbb6614	-0.09150329
4	0xbce40962	-0.027836505
5	0xbc42c662	-0.011888118
6	0xbc74070e	-0.01489426
7	0xbcbbb522	-0.02291352
8	0xbc9873c7	-0.018609894
9	0x3e1f717f	0.15570639
10	0xbdb90197	-0.09033506
11	0xbdb983af	-0.0905832
12	0x3e3e1dd5	0.18566068
13	0x3d80701c	0.06271383
14	0x3cbbd581	0.022928955
15	0xbe1f6945	-0.15567501
16	0xbde862e0	-0.11346984
17	0x3e912190	0.2834592
18	0x3d51833a	0.051150538
19	0x3de8f12f	0.11374127
20	0xbd8cec86	-0.06881051
21	0xbdc104eb	-0.09424766
22	0xbdc540d4	-0.096315056
23	0xbcae3a19	-0.021267937
24	0x3d9480b7	0.07251113
25	0xbe79e439	-0.24403466
26	0x3bc45495	0.0059915283
27	0x3be22ff0	0.0069026873
28	0xbdbdb2eb	-0.092626415
29	0x3c8844f5	0.016634444
30	0xbcf734f4	-0.030176617
31	0x3dd6b1e3	0.10483148
32	0xbded6802	-0.115921035
33	0x3cf50322	0.02990872
34	0xbd0d50e8	-0.034500986
35	0x3e66c58e	0.22536299
36	0xbcab8dd4	-0.020941652
37	0xbd6413f2	-0.055683084
38	0xbe05da96	-0.13071665
39	0x3d82ff0d	0.06396303
40	0xbae4ea42	-0.0017464834
41	0xbdbdbbc3	-0.09264328
42	0x3e18e516	0.1493114
43	0xbc1358b8	-0.00899332
44	0x3e24b468	0.16084445
45	0x3d55e4d7	0.05222019
46	0x3e7d5d32	0.24742582
47	0xbe1c0c77	-0.1523913
48	0x3e2aadc0	0.16667843
49	0x3e0a5d24	0.13512093
50	0x3dc04299	0.093877025
51	0xbdaf1f4d	-0.08550892
52	0xbdd73c02	-0.105094925
53	0x3d9f19cd	0.07768593
54	0xbd0f720a	-0.035020865
55	0x3d33564f	0.043783482
56	0xbd0cb35a	-0.03435073
57	0xbd278bac	-0.040904686
58	0xbdef11db	-0.116733275
59	0x3c9d7dd4	0.019225039
60	0xbd14fcdb	-0.036373954
61	0x3da357f7	0.07975762
62	0xbdbebdf3	-0.09313574
63	0xbe09ffa7	-0.1347643

tabnet.encoder.feat_transformers.0.shared.glu_layers.1.bn.bn.running_var f4 [64]
0	0x40315e6a	2.7713876
1	0x3f9e4a75	1.2366472
2	0x408fc7aa	4.493123
3	0x4003569e	2.0521617
4	0x404f9903	3.243714
5	0x4052d2fd	3.2941277
6	0x40223ea3	2.535073
7	0x40a12e43	5.036897
8	0x3fd7153e	1.6803358
9	0x4043b40e	3.0578647
10	0x40a31af5	5.0970407
11	0x400dab3c	2.2135763
12	0x3ff646ed	1.9240395
13	0x40231394	2.54807
14	0x4008e241	2.1388094
15	0x40009cfb	2.0095813
16	0x405b4e1e	3.426643
17	0x40491b61	3.142296
18	0x4015439d	2.3322518
19	0x40287edf	2.6327436
20	0x3fbe3709	1.4860545
21	0x3fc3016b	1.5234808
22	0x4093997b	4.6124854
23	0x3fbbbe2c	1.4667411
24	0x403ea179	2.9786055
25	0x405f483c	3.4887838
26	0x3f87486e	1.0568979
27	0x402dcf21	2.7157671
28	0x3ffce150	1.975626
29	0x407672b3	3.8507507
30	0x402c864c	2.6956968
31	0x408cf287	4.4046054
32	0x4035cfe4	2.8408136
33	0x3fc542c3	1.5410999
34	0x404d424b	3.2071712
35	0x4094867d	4.641417
36	0x3fa13b39	1.2596198
37	0x4096b400	4.7094727
38	0x3fb07f4d	1.3788849
39	0x404bc0c2	3.18364
40	0x404a0707	3.156679
41	0x401348ea	2.3013253
42	0x4034c5d7	2.8245752
43	0x4080489f	4.008865
44	0x409f6829	4.981465
45	0x408768d5	4.231547
46	0x402a0df3	2.6571014
47	0x4050eabb	3.2643268
48	0x4002b8b6	2.0425239
49	0x40208cc2	2.5085912
50	0x406332f4	3.549985
51	0x3ffd3aff	1.9783629
52	0x40211536	2.5169196
53	0x4036c126	2.8555388
54	0x3fbe6ea9	1.4877521
55	0x3fa2d06b	1.2719854
56	0x3ff64be1	1.9241906
57	0x408b6e64	4.3572254
58	0x4034e584	2.8265085
59	0x4034321d	2.8155587
60	0x401ee743	2.482865
61	0x404aaa71	3.166653
62	0x4071294e	3.768146
63	0x401a9a1c	2.415656

tabnet.encoder.feat_transformers.0.specifics.glu_layers.0.bn.bn.weight f4 [64]
0	0x3f7fb23a	0.9988133
1	0x3f80d6d1	1.0065557
2	0x3f810ca1	1.0081979
3	0x3f7decc7	0.9918942
4	0x3f7f528a	0.9973532
5	0x3f7f3790	0.99694157
6	0x3f7d7575	0.9900735
7	0x3f80ae7b	1.0053247
8	0x3f800607	1.0001839
9	0x3f807e8c	1.0038619
10	0x3f7cfbcf	0.9882173
11	0x3f7f0973	0.99623793
12	0x3f811db1	1.0087186
13	0x3f80a947	1.0051659
14	0x3f8033b5	1.001578
15	0x3f7f935a	0.99834216
16	0x3f80be47	1.0058068
17	0x3f805dca	1.0028622
18	0x3f80fc20	1.0076942
19	0x3f803b84	1.0018163
20	0x3f7e0e41	0.992405
21	0x3f7f17af	0.99645513
22	0x3f8088bf	1.0041732
23	0x3f7e9fe8	0.9946275
24	0x3f814672	1.0099623
25	0x3f807fa7	1.0038956
26	0x3f7f6775	0.9976724
27	0x3f803692	1.0016654
28	0x3f7de945	0.99184066
29	0x3f7efd09	0.9960485
30	0x3f7d9488	0.99054766
31	0x3f808674	1.0041032
32	0x3f7e6e61	0.99387175
33	0x3f80d364	1.0064511
34	0x3f802e35	1.0014101
35	0x3f8036ee	1.0016763
36	0x3f7ed2b8	0.9954028
37	0x3f8051e0	1.0024986
38	0x3f7ecd6b	0.9953219
39	0x3f7f4ff9	0.99731404
40	0x3f80ccad	1.0062462
41	0x3f80da61	1.0066644
42	0x3f8081df	1.0039634
43	0x3f80c7d5	1.0060984
44	0x3f80efbb	1.007316
45	0x3f7f478b	0.9971854
46	0x3f80c40b	1.0059828
47	0x3f80f493	1.0074638
48	0x3f8053f2	1.0025618
49	0x3f801847	1.0007409
50	0x3f7fb911	0.99891764
51	0x3f804e6c	1.0023932
52	0x3f7e6b0e	0.993821
53	0x3f7f8fdf	0.99828905
54	0x3f7f86b5	0.9981492
55	0x3f8021e1	1.0010339
56	0x3f8003c2	1.0001147
57	0x3f7e7eab	0.9941203
58	0x3f80d890	1.006609
59	0x3f804f3d	1.0024182
60	0x3f7f0ad9	0.9962593
61	0x3f80cc7f	1.0062407
62	0x3f801294	1.000567
63	0x3f7da975	0.99086696

tabnet.encoder.feat_transformers.0.specifics.glu_layers.0.bn.bn.bias f4 [64]
0	0xbbe89de6	-0.007098901
1	0xbbc0eb10	-0.0058873966
2	0x3b888e69	0.0041673672
3	0xbafbc08c	-0.0019207164
4	0xbb566d34	-0.0032718899
5	0xbb3c170c	-0.002870026
6	0x3ba14ac8	0.0049222447
7	0xbb82dfc6	-0.003993961
8	0x390c50d6	0.00013381554
9	0xbb779f1d	-0.0037784048
10	0x3a0e14e0	0.0005419981
11	0x3bcc35a4	0.0062319804
12	0x3c30575f	0.010763018
13	0x3c2d7742	0.010587515
14	0xbad857b5	-0.0016505631
15	0xba8d792f	-0.0010793562
16	0xbc100f88	-0.008792765
17	0x3bf3e40f	0.007442958
18	0x3ba2f90d	0.004973537
19	0xbbfa45b6	-0.0076377047
20	0xbb89e635	-0.004208351
21	0xbb684a2b	-0.0035444598
22	0xbc243fa2	-0.010024937
23	0xbb080adc	-0.0020758426
24	0x3afb857d	0.0019189563
25	0x3ad9d27c	0.0016618515
26	0x383444a7	4.297928e-05
27	0xbbb080d6	-0.005386452
28	0x3ac6cd08	0.0015167305
29	0x3bbb57d0	0.005717255
30	0xbb678244	-0.0035325447
31	0xbc05b221	-0.008160145
32	0x3b4bdaea	0.0031105825
33	0x3b96a5f5	0.0045974203
34	0xbace6463	-0.001574647
35	0xbb969c94	-0.0045963023
36	0x3b289efd	0.002572953
37	0xbc25b69f	-0.010114341
38	0xbbceecdc	-0.006314857
39	0x3bcaebb0	0.006192647
40	0xbb969f61	-0.004596636
41	0x3a8459c4	0.0010097553
42	0xbc377d6d	-0.011199337
43	0xbb952be8	-0.004552353
44	0x3be5392b	0.0069953403
45	0x3c030e33	0.007998991
46	0xb9b1aca9	-0.00033888713
47	0xbbc36cf2	-0.005963915
48	0x3b7b26da	0.0038322718
49	0x3ba95204	0.0051672477
50	0x3b296ccc	0.0025852202
51	0x3a85dcf3	0.0010212943
52	0xbbd0b4c6	-0.006369206
53	0x375d49e0	1.3189827e-05
54	0x3bee9b7d	0.0072817192
55	0xbbc3e9ca	-0.0059787976
56	0x3c1f5f0a	0.009727249
57	0x3b991356	0.0046714945
58	0xbc06603b	-0.008201654
59	0xbb81546e	-0.0039468324
60	0xbb9401ec	-0.0045168307
61	0xbbbd3c47	-0.005775008
62	0xbc00ae82	-0.007854106
63	0x3bc1d87c	0.0059156995

tabnet.encoder.feat_transformers.0.specifics.glu_layers.0.bn.bn.running_mean f4 [64]
0	0xbc6addd1	-0.014335112
1	0x3c5dc400	0.0135355
2	0xbddc7d09	-0.10766036
3	0xbd976741	-0.07392741
4	0xbd3fb1c9	-0.04680041
5	0xbd09d922	-0.03365434
6	0xbd9a2ba9	-0.07527859
7	0x3e09879d	0.13430639
8	0x3e359cf8	0.1773566
9	0x3d5e2f87	0.054244544
10	0x3dd9ad34	0.10628739
11	0x3d2bf091	0.04197747
12	0x3d5e1750	0.05422145
13	0x3c15aaa2	0.00913492
14	0x3dd62916	0.10457055
15	0x3d8371af	0.06418168
16	0xbd4d69c5	-0.050149698
17	0x3e84967f	0.2589607
18	0xbd7843dd	-0.060611594
19	0x3d606630	0.054784954
20	0xbe50011f	-0.20312928
21	0xbd2a7bfe	-0.041622154
22	0xbdbd2a66	-0.092366025
23	0xbdff01f6	-0.12451546
24	0xbe134f65	-0.14385755
25	0x3df6009d	0.12011836
26	0xbaab8294	-0.001308518
27	0xbde1fecd	-0.110349275
28	0x3a8d9e89	0.0010804693
29	0x3dc43b25	0.095815934
30	0xbb9e90dc	-0.004839046
31	0x3de45dfd	0.11150739
32	0x3e08f404	0.13374335
33	0xbdb46967	-0.088091664
34	0x3e25a5e4	0.16176564
35	0xbdd2a552	-0.102854386
36	0xbd6bd5f8	-0.057577103
37	0x3d8b3e1f	0.06798958
38	0xbb68125c	-0.0035411334
39	0xbc508578	-0.012727134
40	0x3dd4dc3a	0.103935674
41	0xbd00811d	-0.031373132
42	0xbd0a0b0a	-0.033701934
43	0x3c6eccc1	0.014575184
44	0xbe1ce9cb	-0.1532356
45	0xbce9da10	-0.028546363
46	0xbdb54296	-0.08850591
47	0x3bd2b512	0.0064302767
48	0x3e1d546e	0.15364239
49	0x3d1403f1	0.03613657
50	0xbe5be850	-0.21475339
51	0x3e96385a	0.29339868
52	0x3e1fdb46	0.1561099
53	0xbd4e4cc4	-0.05036618
54	0x3c05b9e5	0.0081619965
55	0xbde80d13	-0.11330619
56	0xbd95272c	-0.07282862
57	0x3e2507e6	0.16116294
58	0x3cd6fa99	0.026242541
59	0x3e5bc4ba	0.21461764
60	0x3c04a8f7	0.008096925
61	0xbe2a784e	-0.16647455
62	0xbd13704c	-0.035995767
63	0x3dcf7eec	0.1013163

tabnet.encoder.feat_transformers.0.specifics.glu_layers.0.bn.bn.running_var f4 [64]
0	0x401d1de9	2.4549506
1	0x403f94ab	2.993449
2	0x400d84fc	2.2112417
3	0x407937f1	3.8940394
4	0x40465c2f	3.0993764
5	0x401978d9	2.398001
6	0x3fed0658	1.8517561
7	0x4051a637	3.27577
8	0x3fc76e32	1.5580504
9	0x408be32a	4.37148
10	0x400bd6ac	2.1849775
11	0x40030441	2.0471346
12	0x400017f4	2.001462
13	0x4097c49d	4.7427506
14	0x405ed3ae	3.48167
15	0x401797bf	2.3686368
16	0x401321cd	2.298938
17	0x40585f0b	3.380801
18	0x3fdf5c3b	1.7450022
19	0x4025d9ce	2.5914187
20	0x401c0dad	2.4383347
21	0x402f98d3	2.7437027
22	0x4011b058	2.2763882
23	0x40337420	2.8039627
24	0x404ef792	3.2338605
25	0x40309bd5	2.7595112
26	0x3ffdb16d	1.9819771
27	0x40308a7e	2.758453
28	0x4034e1f1	2.8262904
29	0x40007fea	2.0078073
30	0x40381688	2.8763752
31	0x404f0422	3.2346272
32	0x4032689f	2.7876356
33	0x4039de1a	2.904181
34	0x4013af63	2.3075798
35	0x4021eadd	2.52996
36	0x40241aca	2.564135
37	0x405571cb	3.3350704
38	0x405ab8e3	3.4175346
39	0x3fc55080	1.5415192
40	0x4063fddd	3.5623696
41	0x401eaa17	2.4791315
42	0x401c4b23	2.442086
43	0x4095f6fc	4.6863995
44	0x4047fed0	3.1249275
45	0x40817ded	4.046622
46	0x3fed67f0	1.8547344
47	0x4046874b	3.1020076
48	0x40a82ad9	5.2552304
49	0x40459aa3	3.0875633
50	0x40267f48	2.6015186
51	0x409e00f0	4.9376144
52	0x409f1afb	4.9720435
53	0x40111a8c	2.2672453
54	0x400660b2	2.0996518
55	0x4048b820	3.136238
56	0x402d071f	2.7035596
57	0x4035e60f	2.8421667
58	0x401b52bc	2.4269247
59	0x40373646	2.8626876
60	0x3fd1a0f5	1.6377245
61	0x4038a676	2.88516
62	0x401f1ecc	2.4862547
63	0x40c9b86e	6.3037634

tabnet.encoder.feat_transformers.0.specifics.glu_layers.1.bn.bn.weight f4 [64]
0	0x3f7dec1a	0.9918839
1	0x3f7d2d75	0.98897487
2	0x3f7d05aa	0.9883677
3	0x3f7d8cd7	0.9904303
4	0x3f81a983	1.0129856
5	0x3f7cf9fe	0.9881896
6	0x3f7db7e5	0.99108726
7	0x3f811265	1.0083739
8	0x3f7d306b	0.98902005
9	0x3f7ca747	0.98692745
10	0x3f7f2889	0.99671227
11	0x3f7d16aa	0.9886271
12	0x3f81c9fe	1.0139768
13	0x3f7ea2e3	0.99467295
14	0x3f7d740a	0.99005187
15	0x3f8205fc	1.0158076
16	0x3f7f78cd	0.997937
17	0x3f7fa993	0.99868125
18	0x3f802708	1.0011911
19	0x3f80baef	1.0057048
20	0x3f7f8d24	0.9982474
21	0x3f80bc67	1.0057496
22	0x3f7e2dbf	0.99288553
23	0x3f7debc2	0.9918786
24	0x3f812492	1.0089285
25	0x3f807275	1.003493
26	0x3f80f18f	1.0073718
27	0x3f80089b	1.0002626
28	0x3f8094ef	1.0045451
29	0x3f7dbf3d	0.9911993
30	0x3f80af64	1.0053525
31	0x3f80ef0f	1.0072955
32	0x3f7f1cd7	0.9965338
33	0x3f7c399e	0.98525417
34	0x3f7f1edc	0.9965646
35	0x3f7ce1db	0.9878213
36	0x3f7fca10	0.999177
37	0x3f7fe4b7	0.99958366
38	0x3f7d5a85	0.98966247
39	0x3f8088b7	1.0041722
40	0x3f802661	1.0011712
41	0x3f8158e0	1.0105247
42	0x3f7cdc70	0.9877386
43	0x3f7e4740	0.9932747
44	0x3f8113bb	1.0084146
45	0x3f7fd12d	0.9992855
46	0x3f7d2eaf	0.9889936
47	0x3f8057fd	1.0026852
48	0x3f7ffd9c	0.9999635
49	0x3f802581	1.0011445
50	0x3f8085f8	1.0040884
51	0x3f80437c	1.0020595
52	0x3f801e41	1.0009233
53	0x3f7ff5a2	0.9998418
54	0x3f80b48b	1.0055097
55	0x3f8025f5	1.0011584
56	0x3f807b91	1.003771
57	0x3f7fd9d9	0.99941784
58	0x3f80794a	1.0037014
59	0x3f7fee45	0.99972945
60	0x3f813481	1.0094148
61	0x3f80467a	1.0021508
62	0x3f7fc9b3	0.99917144
63	0x3f7f9e05	0.99850494

tabnet.encoder.feat_transformers.0.specifics.glu_layers.1.bn.bn.bias f4 [64]
0	0xbc22d7a1	-0.009939105
1	0xbc51add0	-0.012797788
2	0xba348c5f	-0.0006887372
3	0xbc28bf0b	-0.010299454
4	0x3c76ee91	0.015071527
5	0xbc505756	-0.012716135
6	0xb9820a7a	-0.00024803338
7	0x3999c603	0.00029329964
8	0xbb331f8a	-0.0027332031
9	0x3b6638be	0.0035129036
10	0xbb800177	-0.0039064246
11	0x3bcb4ff4	0.0062045995
12	0x3c7096bd	0.014684376
13	0x3c496d9e	0.012294201
14	0xbc338c4d	-0.010958743
15	0x3c224629	0.009904423
16	0x3ac65881	0.0015132577
17	0xbbd602b1	-0.0065310826
18	0xb8bed5f2	-9.0997564e-05
19	0xbb8dc76f	-0.004326753
20	0xbab5e7bb	-0.0013878265
21	0xbab383de	-0.0013695916
22	0xbb8e134f	-0.004335798
23	0x3b487ce9	0.003059203
24	0xbc3caf09	-0.011516341
25	0x3b074468	0.0020640139
26	0xbc1b8382	-0.009491803
27	0xbb9512fd	-0.0045493827
28	0xbb20247d	-0.0024435811
29	0x3bc7a325	0.0060924464
30	0xbb771b14	-0.0037705349
31	0x3a531237	0.00080517255
32	0xbc144444	-0.009049479
33	0xbc2bc5eb	-0.010484199
34	0xbc380659	-0.011231982
35	0xbb072269	-0.0020619875
36	0x3c561a91	0.013067857
37	0xbc4c4f87	-0.012470133
38	0xbc160055	-0.009155353
39	0x3c519c3f	0.0127936
40	0xbc3da1d0	-0.011574224
41	0xbc6fe8c5	-0.014642899
42	0x3c086b87	0.008326418
43	0xbc3cccd5	-0.011523445
44	0x3c6efff5	0.014587392
45	0xbbafc51a	-0.0053640725
46	0x3b4c0730	0.0031132214
47	0x3c7292ef	0.0148055395
48	0x3b0c2a5d	0.0021387555
49	0x3b074de9	0.0020645803
50	0xbb83be32	-0.004020476
51	0x3bd2df11	0.006435283
52	0xbbabc029	-0.005241413
53	0x3c118a8d	0.008883131
54	0xbc16e567	-0.009209967
55	0xbc1211b5	-0.0089153545
56	0x3c18018b	0.009277712
57	0x3b848d70	0.004045181
58	0x3badae94	0.0053003523
59	0x3a8a4564	0.0010549244
60	0x3aedb20f	0.0018134731
61	0xbbf0bc40	-0.00734666
62	0x3ba9a193	0.005176732
63	0x3c0759e3	0.008261177
